grasping_benchmarks/algorithms/se3dif/experiments/test_data/pointcloud_segmented_points/011_banana/aee40d91-c4db-47a7-b21e-ed4083e5d714.npy (npy, 52688 bytes, 1 tensors)

array f8 [2190, 3]
0.06957687813616405 -0.07252811652376125 1.000562071800232 0.07128426269174437 -0.0724502250328291 0.9994875192642212 0.07301096147579085 -0.07239528448486518
0.9987295866012573 0.07479813529675608 -0.07240149748486299 0.9988152980804443 0.07665033798753804 -0.0724689029180798 0.9997451901435852 0.07853526973820299
-0.07256348482555683 1.0010499954223633 0.06956890358820884 -0.07079314172653965 1.000447392463684 0.07127099515927025 -0.07071205619234416 0.9993014931678772
0.07298902668648084 -0.07065035526751993 0.998429536819458 0.07477566551258485 -0.07065642033894637 0.998515248298645 0.07663167916497358 -0.07072623192604668
0.9995018243789673 0.0785093731812258 -0.0708124251107967 1.0007199048995972 0.06954198741647231 -0.06903975794899474 1.0000603199005127 0.07124957410956279
-0.06896663720592498 0.999001145362854 0.07296398076495642 -0.06890352375869911 0.9980869293212891 0.07474465685334021 -0.06890450720594693 0.9981011748313904
0.07659438893912839 -0.06896762476801484 0.9990154504776001 0.07846324756944847 -0.0690447039891281 1.0001319646835327 0.06951907924259061 -0.06729158983660792
0.9997308850288391 0.07122408905439384 -0.06721841950969157 0.9986438155174255 0.07293790651401659 -0.06715692803032723 0.9977302551269531 0.07472115151296563
-0.0671607674865647 0.9977872967720032 0.07657027824898631 -0.06722226698987102 0.9987009763717651 0.07844414079230712 -0.0673021934759346 0.9998884201049805
0.06949319926471521 -0.06554175603616287 0.9993587136268616 0.07119964125584895 -0.06547238905774509 0.9983010292053223 0.07291601965531494 -0.06541532010773544
0.9974308609962463 0.07470086443130924 -0.06542092966614792 0.997516393661499 0.07655166055534741 -0.06548269344518433 0.9984581470489502 0.07842953715427178
-0.06556428808821134 0.9997022747993469 0.06946634526461036 -0.06379231242561438 0.9989725351333618 0.07117317420772853 -0.06372573386990572 0.9979299306869507
0.07289310446719786 -0.06367384735770469 0.9971174001693726 0.07468592028402969 -0.0636865829995639 0.997316837310791 0.07653742537722145 -0.06374760826732498
0.9982724785804749 0.07841942730302862 -0.06383068301903416 0.9995734095573425 0.069433555946069 -0.06203889860972256 0.9985010027885437 0.07114469641213607
-0.06197860794413686 0.9975306391716003 0.07287124375246438 -0.06193435281798519 0.9968183636665344 0.07467311866682606 -0.061954702769299284 0.9971458911895752
0.07652648051314066 -0.06201583039375614 0.9981297254562378 0.06939880614874237 -0.060285409389350335 0.9980012774467468 0.07111217586634083 -0.06022943622177622
0.9970746636390686 0.072847313306916 -0.060194180255168366 0.996491014957428 0.07465818344675515 -0.060221691574699684 0.9969464540481567 0.07651772919175664
-0.06028627350617896 0.9980155825614929 0.06765417355900534 -0.05859312906156528 0.998515248298645 0.06936112185040107 -0.05853116879882141 0.997459352016449
0.07107968507790777 -0.05848186290980644 0.9966191053390503 0.07282444169207924 -0.058455987548599604 0.996178150177002 0.07464752435962745 -0.058492719509047594
0.9968041181564331 0.07651116227330818 -0.058558782475048504 0.9979299306869507 0.06760388616757657 -0.05682753037542146 0.9977730512619019 0.06931951659448926
-0.05677558738701342 0.9968610405921936 0.07104823579715049 -0.0567366937971702 0.996178150177002 0.07279950470375562 -0.05671726567334436 0.9958370327949524
0.0746357984710661 -0.05676342741155576 0.9966475367546082 0.07650241552180477 -0.05682996780210448 0.9978158473968506 0.0675478802613499 -0.05505983229686828
0.9969464540481567 0.06927598401799577 -0.05502054049318655 0.9962350130081177 0.07101175327113549 -0.05498914918622366 0.9956666231155396 0.07277251105660117
-0.054978167495784463 0.9954677820205688 0.07461768516471591 -0.055029965127397405 0.9964056611061096 0.07649257199895299 -0.05510075686987191 0.9976874589920044
0.0657665491921696 -0.053336167040125504 0.9968895316123962 0.06749004491500782 -0.05329354283161681 0.9960928559303284 0.06922460952636131 -0.05326162091577273
0.9954962134361267 0.0709651872503981 -0.05323580593987284 0.9950137138366699 0.07273931693165805 -0.05323580593987284 0.9950137138366699 0.07459532697065281
-0.053294305003233865 0.9961071014404297 0.07647617526729458 -0.05336741607642482 0.9974735975265503 0.0639835923082521 -0.05161122309621846 0.9968041181564331
0.06569524226286998 -0.051559681613522576 0.9958086609840393 0.06742557835305973 -0.05152513237103527 0.9951413869857788 0.06916542213301398 -0.051499434153778306
0.9946450591087341 0.07091161124534485 -0.051479627361613635 0.9942625164985657 0.07270200513172528 -0.05149209533299806 0.9945033192634583 0.07456659474961383
-0.05155526844543353 0.9957234263420105 0.07645760327246187 -0.05163334448703123 0.9972313642501831 0.062196498725888415 -0.04988301196773082 0.9966475367546082
0.06389690401100169 -0.04982325427706048 0.9954535961151123 0.06561754153920392 -0.04978207633265817 0.9946308732032776 0.06735068034780449 -0.04975230040980956
0.9940359592437744 0.06909649866214754 -0.04973317771013422 0.9936538934707642 0.07084904001481412 -0.0497197291718914 0.9933851957321167 0.07265128583343992
00000000: ed10 2750 cacf b13f 7191 82e0 3391 b2bf
00000010: 0000 0060 4d02 f03f 0803 fb78 af3f b23f
00000020: 5b95 1a13 198c b2bf 0000 0040 cdfb ef3f
00000030: d5bc c9ab d8b0 b23f be42 3f53 7f88 b2bf
00000040: 0000 00c0 97f5 ef3f eabe e678 f825 b33f
00000050: 6e00 e18f e788 b2bf 0000 0080 4bf6 ef3f
00000060: 2e42 e246 5b9f b33f 4d99 0270 528d b2bf
00000070: 0000 00a0 e9fd ef3f c6ad 1b2f e31a b43f
00000080: a6a5 3542 8593 b2bf 0000 0000 4d04 f03f
00000090: f5dc ba85 44cf b13f eb1f 7fd4 7f1f b2bf
000000a0: 0000 0020 d501 f03f dfc8 5ce1 d03e b23f
000000b0: ac6e c770 2f1a b2bf 0000 0020 47fa ef3f
000000c0: a5d6 95aa 68af b23f bf24 5345 2416 b2bf
000000d0: 0000 0080 22f3 ef3f a0c6 e97d 7f24 b33f
000000e0: 40b3 9b06 8a16 b2bf 0000 0040 d6f3 ef3f
000000f0: 67e3 d93b 229e b33f 7278 1745 1d1b b2bf
00000100: 0000 0040 ebfb ef3f bc29 3eb6 3019 b43f
00000110: 9356 005a c320 b2bf 0000 00e0 f202 f03f
00000120: 4710 a7f1 80cd b13f 9fc2 83ee 96ac b1bf
00000130: 0000 0040 3f00 f03f 588d a77e 693d b23f
00000140: ff85 502b cca7 b1bf 0000 0040 d1f7 ef3f
00000150: dce4 2b77 c4ad b23f f76d 1f4d a9a3 b1bf
00000160: 0000 0000 54f0 ef3f e95f bc40 7722 b33f
00000170: 241d ffcc b9a3 b1bf 0000 00e0 71f0 ef3f
00000180: 17f8 8c9b b09b b33f 3d86 dcbc dca7 b1bf
00000190: 0000 0040 eff7 ef3f f2ac 3fda 2a16 b43f
000001a0: f865 98e9 e9ac b1bf 0000 0060 8a00 f03f
000001b0: 7182 cb9b 00cc b13f 3be2 a489 053a b1bf
000001c0: 0000 00a0 cbfd ef3f 320f 2ded bd3b b23f
000001d0: 8aa1 7bf1 3935 b1bf 0000 00e0 e3f4 ef3f
000001e0: d3cc 1d03 0fac b23f 8f0f 9749 3231 b1bf
000001f0: 0000 0000 68ed ef3f 6651 11e6 ec20 b33f
00000200: 95d6 edb3 7231 b1bf 0000 00a0 dfed ef3f
00000210: dfcd ec18 1c9a b33f 72d3 487e 7a35 b1bf
00000220: 0000 00c0 5bf5 ef3f 110a 444b ea14 b43f
00000230: c19e ed6f b73a b1bf 0000 0000 16ff ef3f
00000240: b1e8 226a 4eca b13f 719e b232 58c7 b0bf
00000250: 0000 0020 bffa ef3f 2549 aec2 233a b23f
00000260: cf43 cb69 ccc2 b0bf 0000 0000 15f2 ef3f
00000270: 8229 c6cf 9faa b23f f124 85f4 0ebf b0bf
00000280: 0000 0020 f4ea ef3f a424 b789 981f b33f
00000290: 73d8 6311 6dbf b0bf 0000 0080 a7eb ef3f
000002a0: 752a 8abe e398 b33f 4912 cd4a 79c3 b0bf
000002b0: 0000 0080 5ef3 ef3f 2e36 1e49 f513 b43f
000002c0: 07d8 1f39 d2c8 b0bf 0000 00a0 8ffd ef3f
000002d0: 978a 15e1 8bc8 b13f b3ae 9a67 b154 b0bf
000002e0: 0000 0040 95f7 ef3f da1f 93b7 6738 b23f
000002f0: 2d85 e266 5450 b0bf 0000 00c0 0aef ef3f
00000300: ef5f ca5b 1fa9 b23f cb07 03e4 ed4c b0bf
00000310: 0000 00c0 62e8 ef3f 2b71 17d1 9d1e b33f
00000320: 8257 2d8f c34d b0bf 0000 0000 05ea ef3f
00000330: fb4a eaea f497 b33f 52d5 b464 c351 b0bf
00000340: 0000 0020 d9f1 ef3f f636 a3ab 4b13 b43f
00000350: e84f 0c28 3557 b0bf 0000 0060 81fc ef3f
00000360: cd89 08c4 65c6 b13f d09c 3701 90c3 afbf
00000370: 0000 0060 b8f3 ef3f b1bc 5ff0 8936 b23f
00000380: 9ae5 57fc a8bb afbf 0000 0060 c5eb ef3f
00000390: 7355 bc98 b0a7 b23f de4f b407 dcb5 afbf
000003a0: 0000 00a0 efe5 ef3f eb78 900a c71d b33f
000003b0: 4380 74dc 86b8 afbf 0000 0080 9ee8 ef3f
000003c0: bdf8 144b 3d97 b33f 013d c0f6 89c0 afbf
000003d0: 0000 00c0 adf0 ef3f 9750 cac2 1ec4 b13f
000003e0: 7fa7 81ab badd aebf 0000 0060 a0ef ef3f
000003f0: 5c7e b155 6834 b23f ce78 a885 64d6 aebf
00000400: 0000 0020 09e8 ef3f 0b32 411c 1fa6 b23f
00000410: 1701 3687 c5d1 aebf 0000 0020 41e3 ef3f
00000420: 4a57 4878 cc1c b33f ce71 a5a7 60d5 aebf
00000430: 0000 0040 fce6 ef3f fc59 7178 aa96 b33f
00000440: eca7 36aa d7dd aebf 0000 0060 beef ef3f
00000450: b5b3 dfae c851 b13f 19f1 2d2a ebff adbf
00000460: 0000 0040 d6f3 ef3f 9d1a f685 a6c1 b13f
00000470: 773f 931f ccf7 adbf 0000 00e0 2feb ef3f
00000480: dad0 d13a 4732 b23f 17ab 36b1 55f1 adbf
00000490: 0000 00c0 4de4 ef3f 88bc 6a63 9fa4 b23f
000004a0: f1a0 8d75 f1ed adbf 0000 0000 b1e0 ef3f
000004b0: 431a daa3 191c b33f 36e0 b0fa c1f2 adbf
000004c0: 0000 00c0 d1e5 ef3f a428 be4b 3c96 b33f
000004d0: 4c71 3faf 6afb adbf 0000 00c0 0aef ef3f
000004e0: 7418 2c00 7d4e b13f b423 f380 7f18 adbf
000004f0: 0000 00c0 c1ed ef3f cc73 bf80 ecbe b13f
00000500: d5aa 1396 b011 adbf 0000 0020 49e6 ef3f
00000510: 21f0 2f99 3730 b23f 351c af88 970c adbf
00000520: 0000 0000 b1e0 ef3f e81c de03 fda2 b23f
00000530: 6301 5fa2 0b0a adbf 0000 00a0 e5dd ef3f
00000540: 8c48 8be9 541b b33f 57d9 ae90 1810 adbf
00000550: 0000 0060 89e4 ef3f ed2c bb8c a995 b33f
00000560: 6119 494a d118 adbf 0000 0080 1bee ef3f
00000570: a5f9 a260 d14a b13f 409b 1366 cd30 acbf
00000580: 0000 0040 fce6 ef3f 2369 c125 12bc b13f
00000590: c78e 0dfc a62b acbf 0000 0040 28e1 ef3f
000005a0: b65f ee85 d32d b23f 3086 c7aa 8927 acbf
000005b0: 0000 0040 80dc ef3f c530 0923 38a1 b23f
000005c0: f4dc c62e 1926 acbf 0000 0040 dfda ef3f
000005d0: 7955 7c05 251a b33f cb5c 0b39 e32c acbf
000005e0: 0000 0020 8ee2 ef3f 7857 1f67 0495 b33f
000005f0: 6e5d 7b99 2a36 acbf 0000 0040 0eed ef3f
00000600: 267e f399 13d6 b03f f83d 43ca e04e abbf
00000610: 0000 00e0 84e6 ef3f f42c b70f 0747 b13f
00000620: 617b 198f 4a49 abbf 0000 0020 fedf ef3f
00000630: ce7c fe39 b4b8 b13f d62d ee6f 1b45 abbf
00000640: 0000 00e0 1adb ef3f 261d 6546 c62a b23f
00000650: 6cd5 f93a b941 abbf 0000 0000 27d7 ef3f
00000660: 7ad7 5a3b 0b9f b23f 6cd5 f93a b941 abbf
00000670: 0000 0000 27d7 ef3f 45fc c5e9 ad18 b33f
00000680: b397 1a22 6449 abbf 0000 0000 1ce0 ef3f
00000690: ca39 b24f f193 b33f 21c7 7055 f952 abbf
000006a0: 0000 00c0 4deb ef3f 5ecd 718c 3a61 b03f
000006b0: 2011 9c46 c96c aabf 0000 00c0 d1e5 ef3f
000006c0: 3b96 0545 67d1 b03f 36fe a4d4 0766 aabf
000006d0: 0000 0020 aadd ef3f 00b6 f07d cd42 b13f
000006e0: 3e4d e98c 8061 aabf 0000 00c0 32d8 ef3f
000006f0: cd48 133a d3b4 b13f 6ced e742 225e aabf
00000700: 0000 00e0 21d4 ef3f 8996 346b 4327 b23f
00000710: e556 dba7 895b aabf 0000 00a0 ffd0 ef3f
00000720: 5ef6 643e 999c b23f 045d ea02 2c5d aabf
00000730: 0000 00a0 f8d2 ef3f 7adc d2dd cb16 b33f
00000740: 0bbc d1bf 7365 aabf 0000 0060 f7dc ef3f
00000750: c8f4 95b9 b992 b33f cae8 e88b af6f aabf
00000760: 0000 00c0 51e9 ef3f 9323 e82f 38d8 af3f
00000770: d004 0e22 448a a9bf 0000 0060 89e4 ef3f
00000780: b9fb 0a29 8c5b b03f 6289 66ff 6e82 a9bf
00000790: 0000 0080 c1da ef3f ed6d f4aa 4fcc b03f
000007a0: 1e2e 8d4b 097d a9bf 0000 0020 04d4 ef3f
000007b0: 1b09 75e9 e43d b13f 6a61 522e 2279 a9bf
000007c0: 0000 0080 24cf ef3f daa3 05e2 4eb0 b13f
000007d0: e415 9587 a076 a9bf 0000 0040 03cc ef3f
000007e0: 240e d1a5 2923 b23f 83bc 8445 dd74 a9bf
000007f0: 0000 00c0 cfc9 ef3f b7be aa50 4699 b23f
